final_global_mlp.onnx (onnx, 334716 bytes, 28 tensors)

coefficient f4 [50, 128]
00000000: 6e19 8fbd 0413 6c3e 2574 9d3e 6809 e73d
00000010: 5b48 2abe 31d9 53be a961 13be b5f9 253e
00000020: 6f54 cd3d 2189 a33d 064e 94be b382 8a3e
00000030: 7229 083e 6416 77be 7549 3ebe 177d 04be
00000040: 3ce9 18be 47cc 18bb 564a d4bc b12f d2bd
00000050: f16a 2e3e 893f 16be 28b7 86be bf0c a2bd
00000060: 63c7 9ebd c050 163e 4764 1ebe f6cd 8ebd
00000070: a951 093d d1e2 2fbe 3c85 16bc 07a3 70be
00000080: 387e 94be d267 723e e88e a63e 8fe9 373e
00000090: eb3a d5bd ea10 b0be 1860 663d 9ff2 943c
000000a0: 7361 20be 11cb b1bd 1d1b 2ebe 2523 3c3e
000000b0: f81d 22be 53d4 933d 5d7e b1bd c9f1 cb3c
000000c0: 9095 263d ae39 06be 6214 253e 05e7 cf3d
000000d0: e9d4 7f3e 9b95 403e a983 753c ee46 493e
000000e0: 0c61 10be c2b2 26be 0159 31be 89cc 33be
000000f0: 901d 7fbd 888c 05be 62f5 1a3e 7b75 dcbd
00000100: 71a9 01bd c932 8b3d 7d74 02be 6716 1d3e
00000110: 385f 5dbe 75fd 733e dd1c 003e 6762 1bbe
00000120: df07 8ebe 7f8d 583e 26a5 153e a061 213d
00000130: d083 503e cddb 66be 678d eebd c172 2dbe
00000140: 09f8 073e e195 c73d 6cf1 10be 38f5 8dbe
00000150: 674e d3bd adb1 febd cd75 7a3e 75e5 933c
00000160: 4ce6 a23e c128 f2bb 0409 6cbe d3f9 033d
00000170: 2793 973e ae97 063e e1c7 213e 868d 16be
00000180: fb02 a63d 0763 07bc 5ca8 82be 8eab b4be
00000190: 2ad6 0bbe b327 3d3e 230b 7bbd 073c bf3d
000001a0: 5651 7a3e 3132 37be 2970 7ebd 008e 0c3e
000001b0: dbe3 b1bd 52ec c7be fde7 0bbe 5702 00be
000001c0: 2cc2 433e 1d0b a73e 4687 d33c d4c4 463e
000001d0: f36a 8e3e 6614 3abe ab48 243e 6b77 c53d
000001e0: dcd7 a83e 176b 843e b0cb 233c 959b 67be
000001f0: b5f1 45be 10a5 b03d 8366 263e 1528 493e
00000200: 5d73 86be c6c5 97bb e534 9f3c ed83 bfbd
00000210: 4fe5 45be f1ef c5bd 057b 883e ec96 23be
00000220: 76f0 333c 80a5 183e 85a6 e9bd 022b 5a3e
00000230: 85e1 813e 8b9a 22bd fbf2 c8bd 19ad d8bd
00000240: 59e8 38be 2685 8bbe 9a60 273e 5326 073e
00000250: 8eec 85be b6d3 62bd 281c a23e ca62 f9bd
00000260: 1744 a6bd b204 23bd 1b14 523e fe52 d7bc
00000270: b102 313e c82c 673e b9cf 89be 9edc 0a3e
00000280: c1f8 aabd 3d41 e13d b2e8 ae3d 8015 003d
00000290: e987 7fbe 7836 593e dfbb 0abe e20c 7bbe
000002a0: 4251 4cbe 9b6a bf3d 5347 a43d a57c a6be
000002b0: 22d5 5f3d d11b 43be c79a 583d ed7e 66be
000002c0: b51a 1c3e 51d0 d5bd 1512 233e 2328 3bbe
000002d0: 9952 25be 9c79 3ebe 43d2 743e b254 593e
000002e0: 5f24 39be d483 303e c3e0 8c3e 3fea ce3d
000002f0: 8918 47bd 3637 0abe f5ed 76be b782 8e3e
00000300: 50cb b13e 7a8e d83d 24ff 4abe e906 e3bd
00000310: 7871 333d ce84 373e 8e3a 3c3e 0c8b 4c3e
00000320: f01d 3e3c 6841 0cbe 70a6 3fbe 3b0e 6e3e
00000330: 4b3d 863d 7b61 8dbe ce1a 49be f313 173e
00000340: 969c 41be f87a 62be 6ba2 823c ef18 433e
00000350: 6bce 773e 64f8 43be 0332 783e 48b6 7cbe
00000360: 4858 093e 0c01 ee3d 8e19 bd3d b497 163d
00000370: 2a28 cb3d f5aa a83d 9109 81be c005 3dbe
00000380: 312c dc3c 618e 67be 7ddb fa3e bbe7 6539
00000390: d14a 3d3e 13e3 453e cb38 633e 4232 053e
000003a0: 373b 7a3d 2dfe bebd d54b f0bd 7da4 553e
000003b0: 1749 50be 8753 5ebe c8c1 f13d 5292 70be
000003c0: 0017 503e a4b0 883e d26b 4d3e 5b10 553d
000003d0: 78d5 64be 993d 563e a238 4ebc 5940 a83e
000003e0: 7220 c43e f819 403e 6745 c3bd 799f 98bd
000003f0: e6cc 2e3e 6ac6 253d b9c0 65be c4c1 51bd
-0.06987272 0.23054129 0.30752674 0.11281091 -0.16629164 -0.2068832 -0.14392723 0.16208537
0.1002587 0.0798514 -0.28965777 0.2705284 0.1329706 -0.24129635 -0.18582709 -0.12938343
-0.14932722 -0.0023315118 -0.025914352 -0.10263003 0.17032982 -0.14672674 -0.26311612 -0.079125874
-0.07752874 0.14679241 -0.1546794 -0.06972878 0.033525143 -0.17176367 -0.009187039 -0.2349969
-0.29002547 0.23672417 0.32530904 0.1796019 -0.10411628 -0.34387904 0.056243986 0.018182097
-0.15662174 -0.0868131 -0.1700253 0.18372782 -0.15831745 0.07218232 -0.0866668 0.024895566
0.040669978 -0.1310794 0.16121057 0.10151485 0.24983563 0.1880707 0.0149850035 0.19655964
-0.1409952 -0.16279128 -0.17319109 -0.17558493 -0.062284052 -0.1304189 0.15132669 -0.10764595
-0.031655733 0.06796796 -0.12739749 0.15340577 -0.21618354 0.23827155 0.1251101 -0.15174256
-0.2774038 0.21147726 0.1461378 0.039399743 0.20362782 -0.22544785 -0.11648064 -0.16938306
0.13278212 0.09745384 -0.14154595 -0.2772615 -0.103176884 -0.12436233 0.24459 0.01805375
0.31816328 -0.007390112 -0.23050314 0.032220673 0.29604456 0.13143799 0.15798904 -0.14702424
0.08106037 -0.008263356 -0.25519073 -0.35287136 -0.13655916 0.18472175 -0.061289918 0.09337621
0.2444509 -0.1789024 -0.062118683 0.13726044 -0.08686038 -0.39047486 -0.13662715 -0.12500893
0.1911704 0.32625666 0.02582134 0.19411021 0.2781597 -0.18171844 0.16043346 0.09641918
0.32977188 0.25862953 0.009997293 -0.22617944 -0.19330485 0.08625233 0.16250043 0.19644196
-0.2625989 -0.0046317307 0.019434402 -0.09351335 -0.19325756 -0.09664906 0.26656356 -0.15975541
0.010982623 0.14906883 -0.11408714 0.21305469 0.2536737 -0.039698165 -0.0981197 -0.10579891
-0.18057384 -0.27250022 0.16345444 0.13198213 -0.2615704 -0.055377685 0.31662107 -0.12177046
-0.08118456 -0.0397994 0.20515482 -0.026284691 0.17286183 0.22575676 -0.26916292 0.13560721
-0.08348227 0.10998771 0.08540477 0.031270504 -0.2495419 0.21212184 -0.1354823 -0.24516633
-0.19952872 0.09346505 0.080214165 -0.3251697 0.05464662 -0.1905358 0.052881982 -0.22509356
0.15244563 -0.10440124 0.15924866 -0.1827703 -0.1614479 -0.18601078 0.23908333 0.21223715
-0.1808028 0.17237788 0.2751523 0.10103273 -0.048607383 -0.13497624 -0.24114211 0.27834103
0.34725428 0.1057405 -0.19823891 -0.110853024 0.043809384 0.17921755 0.18381712 0.19974917
0.011603817 -0.13696826 -0.18715835 0.23247616 0.065546595 -0.27613434 -0.19639131 0.14753704
-0.18907389 -0.22117221 0.015946588 0.1905248 0.24199836 -0.19137722 0.24237828 -0.2467891
0.13412583 0.116212934 0.0923339 0.03676577 0.0991977 0.082357325 -0.2520261 -0.18459225
0.02687654 -0.22612907 0.4899558 0.00021925468 0.18485571 0.19324903 0.22189634 0.13007453
0.061091628 -0.09325824 -0.11733214 0.20863529 -0.20340382 -0.2171155 0.11804539 -0.23493317
0.20321274 0.26697266 0.20060661 0.05201755 -0.22347057 0.20921935 -0.0125867445 0.32861593
0.38306004 0.18759906 -0.09534722 -0.07452292 0.1707035 0.040472426 -0.22436799 -0.05121018

intercepts f4 [1, 128]
00000000: 4ba0 dd3d 482f 3f3e 3cfd b3bd 992d 183e
00000010: 4754 7fbe f3f5 343e 8026 d0bd c301 5abd
00000020: 64b2 d43c 16fc 4f3e 9edd 93be 9d9e a4bd
00000030: 8b55 fc3d 2cb9 753c 24a0 0bbe 86ac 853d
00000040: b71b 10bd 7221 663e 8670 343e e331 df3b
00000050: 3dce 4c3e 73e6 183d 68a8 67be e8d5 2abe
00000060: 5875 2e3d 773a 2fbe b2de 183e 28fc d73d
00000070: 5be6 0fbe 2ff4 513d 2df5 f53d 930f 5c3e
00000080: 4ff4 013e efd6 0c3d d070 6d3e 8574 863d
00000090: 4083 c2bc a57e 48be 57ae fcbd 40c7 523d
000000a0: c0f2 96bc 807d 75be 117c 7a3d 0ab0 59be
000000b0: 64a6 833d 1ca7 143d 5588 8e3e bbb6 e338
000000c0: 01f9 56be d4fe 863c 4c5f be3d 9fe6 6d3e
000000d0: 39aa 1ebd ef44 acbc 14ab 243e 6c9a e3bd
000000e0: 323f 2b3d 4146 b2bc 55e4 8cbe facf 51bd
000000f0: ec45 a8bd 9056 013e 046b 4b3e 5c13 37bd
00000100: f1ff 473e 6fec 13be 6e61 8abc f4d2 2cbe
00000110: a468 253e b3b1 183e 9ccb 433c bed8 3c3e
00000120: 1339 503d 5fbc 543e 267b 8e3d e1b2 2f3e
00000130: 4faa 9c3d 15fe fbbd 0d12 3e3d 5fd5 a9bd
00000140: 8399 583d da96 1ebd a5df b63d e468 2fbe
00000150: c04c 27be 50ee 823c c2b5 573e 8317 34bd
00000160: fdc7 16bd c1c3 c53d f021 ef3c 10b1 66bd
00000170: f2bb 933d d110 09be f371 5b3e 131f e7bd
00000180: b73e f1bc f9b8 27be de66 b6bc e559 b33d
00000190: 3ff0 c0bd 7149 efbd c722 953d ef06 56be
000001a0: 3e6d 2fbe 50a5 443e b612 ca3d 6c0a 0d3e
000001b0: b384 d63d 2285 063d 1d80 4fbe 7eb0 df3d
000001c0: ebd0 e73d 8d18 be3d 4f12 9a3d 0cb2 aebd
000001d0: 5263 d03d d627 cc3d 5249 203e c990 16be
000001e0: d895 13be 4075 f2bd e1c1 4b3e f325 b6bd
000001f0: 1801 20be 59a2 3a3e 8f22 e5bd 103a 093e
0.10821589 0.1867038 -0.08788535 0.14861144 -0.24934493 0.17671947 -0.10163593 -0.053224336
0.02596397 0.20311007 -0.28880018 -0.080380656 0.123210035 0.014997762 -0.13635308 0.06527047
-0.03518268 0.22473696 0.1762105 0.006811367 0.20000549 0.03732915 -0.22622836 -0.16683161
0.042592376 -0.17112146 0.14928702 0.10546142 -0.14052717 0.051258262 0.12009654 0.21490316
0.12690853 0.034384664 0.23187566 0.06565193 -0.023744226 -0.19579561 -0.1233794 0.05145955
-0.0184263 -0.23973656 0.061153475 -0.2125856 0.06428221 0.03629218 0.27838388 0.0001085824
-0.20993425 0.016478933 0.0929552 0.23232506 -0.038736556 -0.021028964 0.16080886 -0.11113438
0.041808315 -0.021762015 -0.27517954 -0.051223733 -0.082164615 0.12630677 0.19865042 -0.044696197
0.19531228 -0.14445661 -0.016892161 -0.16877347 0.16153198 0.14911537 0.0119504 0.18442056
0.05083568 0.20774983 0.069570825 0.1715808 0.07649671 -0.12304322 0.046403933 -0.082926504
0.052880775 -0.038718082 0.089293756 -0.17129856 -0.16337872 0.015982777 0.21065429 -0.043967735
-0.036811817 0.09656478 0.029190987 -0.056321204 0.07213582 -0.13385321 0.21430187 -0.11285224
-0.02944885 -0.16379155 -0.022265848 0.087573804 -0.09420823 -0.1168393 0.07282024 -0.20901082
-0.17131516 0.19203687 0.0986685 0.13773507 0.10474529 0.03284181 -0.20263715 0.10922335
0.11319145 0.092820264 0.07523023 -0.085300535 0.10175194 0.099685356 0.1565297 -0.14703669
-0.1441263 -0.1183877 0.19898178 -0.08893957 -0.15625417 0.18225993 -0.11188232 0.13401055

coefficient1 f4 [128, 64]
00000000: 7c06 273e f33a a33b 1af6 c0bd 2139 b93d
00000010: 8818 aa3e 0655 a2be 6719 893c f26f 0f3e
00000020: f0f2 9fbd 14df 383e a14e 133e 6883 0ebe
00000030: 5c03 203e 338b 883e 755f d23e 006f 44be
00000040: d2fd 493d 9c9b a0be f7b9 07be 0e59 563e
00000050: 2e5e e23c 25c5 73be ab05 f93d 4038 98bd
00000060: ef3a 493c 3df4 d2be 1741 903e 29a8 04be
00000070: 0000 0080 79dd 403d 004e 833c f4a5 c63e
00000080: 6a4b 333e 8cb9 c53d a10f 863d 7fa0 89be
00000090: 8c3e af3d 5fcd e83d d803 7a3e 33d1 a73d
000000a0: 396e 1b3e ff24 f43d 8ba9 01be 33e4 bebe
000000b0: 9655 9bbe 0af6 813d ae30 aa3d 3912 b8bd
000000c0: 56cb 603d 834c 163e 199a 43be 81d9 7d3e
000000d0: c6ad 6d3e 752d 753c 3636 ad3e 026f fe3c
000000e0: 9a3b 923e e7a6 863e c24e d53d 597c 96be
000000f0: 67e7 1bbe ae7f f93c c2d8 263e 6152 a9bd
00000100: a05e e3bd 3059 6b3e 2682 1e3e 7027 9c3d
00000110: 24fb d2be 43e5 d4bb 9e9b 053e bd4c 1cbd
00000120: fc56 023e c22f 4d3e b9df f9bd 1b81 6e3e
00000130: 7c5c 29bd ec40 4dbe ba8f 7fbe 9ab2 943d
00000140: 17f7 4c3e 67c9 843d ad9a 743e 5db7 c83c
00000150: 37a5 8abd 68aa 64bc 2d16 6ebe 7a02 723e
00000160: 9a1f 9ebd 1e3d 8d3d 9907 fcbd d675 6f3e
00000170: 67af 63b6 8ada cbbd 5346 f93d 9dec bfbc
00000180: 3684 9b3d e807 33be f040 94bd d8f7 043e
00000190: 6bf1 8bbd 4a89 83bd 3630 01be cf43 f8be
000001a0: 42b4 31bc 6c57 39bb 9f60 023e 4a3f 5e3d
000001b0: 44c6 5c3e 9f1a b03d f720 91be 73ef f13d
000001c0: 094b 4d3e 4c6a 2f3d 7d9d 103e e512 993d
000001d0: cffd e8bd 79dc 373c 71a2 843d 05a7 c93d
000001e0: a5c1 2f3d 3405 1c3d 5952 a5be a8c8 8e3e
000001f0: fa40 ab3d 409d 213d bba2 18be f77e dc3d
00000200: 9f5c 4e3e add5 2fbf 215b b3be 4419 1fbf
00000210: 2d19 713e 8d66 85be b004 073e ce1d 743e
00000220: 6912 c7bd a3c2 2dbe ab16 353e 4951 dfbd
00000230: 34b6 353e b1df e13d 5cf2 3b3e c18c 34be
00000240: 5258 aabe 3d75 01bf 21d1 06bf 9ada c83e
00000250: 147e 6c3e 0ed9 dbbe bcb5 973e 15ba 83be
00000260: 0a9b dc3c 94b2 d4bd 6b9f e93e 2935 a5be
00000270: 0100 0080 1c4f ea3d a83f cbbe d921 bf3e
00000280: b790 8c3e 6c54 f03e d36b 243f 78ef 8bbd
00000290: 75f4 d03e b598 8e3e a79d 933e 39ca 133f
000002a0: 3c53 133f f385 7c3e 45e1 0abe 8b03 e8bd
000002b0: bf75 8cbe c022 8ebe 7b5c a13e a47c 81be
000002c0: 94ed 9bbe ebd6 fc3e 16b3 c4bd bc9e 813e
000002d0: 89e8 b63e 1e39 01be 64fe 643e 308c c03d
000002e0: e2b2 c23e ab47 e43e 9a92 043f bc52 82be
000002f0: ac38 0fbf 6447 a5be 324d 3d3e 2407 f2be
00000300: 54cf 503e fa1a 80be 3af3 1b3e cc95 39be
00000310: e677 353d 2c2c 88be 57e2 083d 759f 64be
00000320: f25a 0b3e 89ad 923d 7f9d f93c b574 6dbe
00000330: 848e 513e 8ce6 a5bb 3fee e2bb ef44 3dbd
00000340: 133f a33e aabe 9dbe e520 43be 4f73 5a3e
00000350: 89c0 17bc 02f6 f1be 1a42 d13d d135 6a3d
00000360: 2163 9ebc 0da1 213e 1279 0e3e 604d 62be
00000370: 79d6 c936 95d4 43bb 6f21 96be e60a 5a3d
00000380: ce4e 89bd ca92 dcbb f362 67be a816 d23d
00000390: 1702 4b3e f78d d43d b265 773e 461e ad3d
000003a0: c902 8e3c 2d08 87bd 7349 36bd c1a3 d0bd
000003b0: b5bf 103d 1c76 723d 4cbe 5e3e 62b3 08be
000003c0: e9b8 4d3c b0c8 6f3d 2e5c 82be 89a1 5a3e
000003d0: d8ea af3d 7173 02bf bc7f 6e3d 5a91 af3c
000003e0: 69f6 1f3e cf54 dabc 58ea b43e 8949 78be
000003f0: 4c07 a8be d1a8 88be 8b97 b83d 1668 20be
0.16311067 0.0049813925 -0.0942194 0.090440996 0.3322184 -0.31705493 0.016735746 0.14007547
-0.078100085 0.18053848 0.14385463 -0.13917315 0.15626281 0.266687 0.41088453 -0.19182968
0.049314328 -0.3136872 -0.13254534 0.20932409 0.027632799 -0.23805673 0.12159284 -0.07432604
0.012282117 -0.41201964 0.2817466 -0.12954773 -0.0 0.047086213 0.016028404 0.38798487
0.17509237 0.09654531 0.0654595 -0.2688026 0.08556852 0.113672964 0.24415529 0.081941985
0.15178765 0.11921119 -0.12662332 -0.37283477 -0.30338734 0.06345756 0.08310066 -0.08987851
0.054881416 0.14677624 -0.19101752 0.24790002 0.2321082 0.014964451 0.33830422 0.031058792
0.28561097 0.2629921 0.104154125 -0.29391745 -0.15224992 0.03045639 0.16293624 -0.08267666
-0.11102033 0.22983241 0.15479335 0.076247096 -0.4120723 -0.0064970567 0.13047644 -0.03815912
0.12728494 0.2003775 -0.12200875 0.23291437 -0.041347966 -0.20044297 -0.24957171 0.07260628
0.20016132 0.06483727 0.23887129 0.024501497 -0.067697935 -0.013956644 -0.23250647 0.23633757
-0.07720871 0.06896423 -0.12306137 0.23384795 -3.3927734e-06 -0.099537924 0.121716164 -0.023428256
0.075935766 -0.17483485 -0.07238948 0.1298517 -0.06833156 -0.0642267 -0.12616047 -0.48489234
-0.0108461995 -0.0028280867 0.1273217 0.054259576 0.21560007 0.085988276 -0.28345463 0.118132494
0.20048155 0.042825982 0.14122577 0.07474307 -0.11376535 0.011221998 0.06476296 0.098463096
0.042909283 0.0380909 -0.3228939 0.27887464 0.08362003 0.039456606 -0.14905827 0.10766404
0.2015252 -0.6868542 -0.35030463 -0.6214793 0.2354476 -0.26054803 0.13185382 0.23839495
-0.09720308 -0.1696878 0.17684428 -0.10904176 0.17745286 0.11028994 0.18354172 -0.17631818
-0.33270508 -0.50569516 -0.52662855 0.3922928 0.2309497 -0.42939037 0.2963084 -0.25727907
0.026929397 -0.103856236 0.4562944 -0.3226712 -1e-45 0.1144087 -0.39697003 0.3733051
0.2745416 0.4693941 0.64227027 -0.068327844 0.40811506 0.2785088 0.28831217 0.5773044
0.5754888 0.24660473 -0.13562496 -0.11328801 -0.27433583 -0.27760887 0.3151587 -0.25290406
-0.30454695 0.4938272 -0.096044704 0.25316417 0.35724285 -0.12619445 0.22362667 0.09401739
0.38027102 0.44585928 0.51786196 -0.25453746 -0.5594585 -0.3228103 0.18486479 -0.47271073
0.2039159 -0.2502058 0.15229502 -0.18123549 0.044303797 -0.265962 0.03341898 -0.22326453
0.13608912 0.071620055 0.030470608 -0.23189051 0.20464522 -0.0050628837 -0.006925374 -0.04620832
0.3188406 -0.30809528 -0.19055517 0.21333049 -0.009262213 -0.47258002 0.10217686 0.05718023
-0.019334378 0.15784092 0.13913372 -0.22099829 6.0152347e-06 -0.0029881347 -0.29322383 0.05323305
-0.06704484 -0.006731366 -0.2259634 0.102582276 0.19825016 0.1037864 0.24159887 0.0845304
0.017335312 -0.06593356 -0.04450364 -0.101874836 0.035339076 0.05919467 0.2175228 -0.13349679
0.012556293 0.058541 -0.25460953 0.21350683 0.08589715 -0.509574 0.058227286 0.021431614
0.15621342 -0.026651768 0.3533504 -0.24246801 -0.32818067 -0.26691297 0.090132795 -0.15664706

intercepts1 f4 [1, 64]
00000000: abe1 b33d 9428 f0bd ada3 783c 3f2f 4fbd
00000010: 94df 2e3e 35a5 113e 1663 713d 89e7 353d
00000020: d540 5b3e 6153 883e 6f73 1c3e 5ecd 97bd
00000030: e61d dabd e6f1 953d 2ed7 8c3c 316f 03be
00000040: 104a 12be 13e1 353e 731d 213e cb9c fabc
00000050: 57d2 2c3e 9d3c 923d 71d6 353e 1749 cb3d
00000060: ae93 20be e5cb 363d b554 21bd 2019 c33d
00000070: c88c 27be a2dc 533e 5408 03bd 41b9 2ebd
00000080: a1bb 2f3d dc56 9d3d bab6 a2bc 562d 3e3e
00000090: b735 3f3c f9b8 aa3d ff80 b43d 01e5 e2bd
000000a0: 0dba 183d 7205 473e e2e6 cebd da6a 053d
000000b0: 496b 3b3e df1f 0ebd 225d 42bd 5f7f 743e
000000c0: 12a3 aabd a6e0 22be 9770 433e 95d4 1d3e
000000d0: b1ac bb3c 3e02 3e3d d08f 283e 3df8 f13d
000000e0: ee90 92bd 145f 4cbe 6360 1cbd 9388 3a3e
000000f0: bee5 623e 62bf 823e 433d 1d3e 210c 8d3d
0.08783277 -0.1172649 0.015175742 -0.050582167 0.17077476 0.14223178 0.058932386 0.044410262
0.2141145 0.26626113 0.1527841 -0.074122176 -0.10650234 0.07321529 0.01719245 -0.12835385
-0.14286065 0.1776164 0.1573389 -0.030592343 0.16877113 0.07140467 0.17757584 0.0992605
-0.15681335 0.044628043 -0.039387424 0.095262766 -0.16362298 0.20689633 -0.031990364 -0.04265714
0.042903546 0.07682583 -0.019862521 0.18571982 0.011670521 0.08336062 0.088136666 -0.11078835
0.037286807 0.19435671 -0.10102631 0.032572605 0.18302645 -0.034698363 -0.0474521 0.23876713
-0.083318844 -0.15906009 0.19085918 0.15413125 0.022909494 0.046388857 0.1646111 0.11814926
-0.071565494 -0.19958144 -0.03817786 0.18216161 0.22157952 0.25536638 0.153554 0.06887079

coefficient2 f4 [64, 1]
00000000: a07a 2fbf 9833 543f dc8a 423f 5006 683f
00000010: b1d4 61bf 1725 423f c69c 04bf 007c 84bf
00000020: f5cd 213f a87a 933f c75d 31bf 2cfc 3d3f
00000030: c62b 68bf c608 25bf d100 69bf d90e 493f
00000040: b42b 923f 3c28 573f 2236 603f 8900 6bbf
00000050: e5e7 97bf d651 323f adb0 3cbf ffe5 843f
00000060: f9fe 983d 9128 9c3f 373f 3abf ea18 503f
00000070: b32a fe3a c5f5 4abf e595 0b3f 8ca5 7cbf
00000080: 85d9 1cbf 0621 5abf ae1f a8bf b60b 4d3f
00000090: 8db5 4abf 0460 afbf eea7 40bf f8f3 adbf
000000a0: 9b5a 4ebf a413 60bf 4875 a23f d4fd 7a3f
000000b0: 0a71 dc3e c01c 563f 2f12 18bf c000 023f
000000c0: 692a 2e3f 8f08 6bbf 150d 413f 9954 2dbf
000000d0: 480d 80bf da8b 8c3f 460a 81bf 8862 3dbf
000000e0: b4e6 68bf 5620 78bf a3c7 a6bf e902 003f
000000f0: 96ce 433f f27b 4f3f 223f 29bf 014d e93f
-0.68546486 0.82891226 0.7599313 0.9063463 -0.88215166 0.75837845 -0.5180172 -1.0350342
0.6320489 1.1521807 -0.6928372 0.7421291 -0.9069179 -0.6446651 -0.9101687 0.7853828
1.1419587 0.8404577 0.875826 -0.9179769 -1.1867644 0.6965612 -0.73707086 1.0382689
0.07470507 1.219988 -0.7275271 0.81288016 0.0019391387 -0.79281265 0.54525596 -0.98690104
-0.6126941 -0.8520664 -1.3134668 0.80095994 -0.79183275 -1.3701177 -0.7525624 -1.3590078
-0.80607 -0.8752997 1.2692041 0.9804356 0.43054992 0.8363762 -0.59402746 0.50782394
0.6803346 -0.91809934 0.75410587 -0.6770721 -1.0004053 1.0980179 -1.008126 -0.7397847
-0.90977025 -0.9692434 -1.3029674 0.5000444 0.764871 0.810485 -0.6611196 1.8226625

coefficient3 f4 [50, 128]
00000000: 1822 62bd 1e14 723e a04a 613e 459b 07bc
00000010: 17f5 60be 61f5 5fbe fbc6 21be 21d5 6a3e
00000020: 4358 623d 6822 c93d 80e6 9ebe 29fa 9b3e
00000030: 93f2 163e eec6 62be a951 59be c3d2 a2bd
00000040: f0a0 debd 2434 b5bc 4795 1b3e fb5d 12be
00000050: 9b58 ff3d c468 9ebd 8834 5bbe 0595 16be
00000060: f994 4fbd 970c 2e3d b7ad 97bd 3611 863d
00000070: 287e 3e3d e237 4cbe c820 683d f99e 67be
00000080: 6d53 72be 6606 4f3e 1e7d aa3e f00e 083e
00000090: bc6f 00be a0b8 afbe 899b a73d afb8 5a3d
000000a0: 13d8 8abe e7e3 35bd dba8 22be 4233 3d3e
000000b0: 0a65 41be 1283 513d c105 9dbd d7d8 a83d
000000c0: 0205 433d 71c4 4bbe db9b 043e 22d7 183e
000000d0: 97a5 9b3e 603d 893e 768a f93d e52a 793e
000000e0: 67fa 36be 475f 6ebd fe6c 89be 8167 e6bd
000000f0: 5441 e3bd 405b a1bd 6267 733e e1a2 97bd
00000100: e69f fdbd 8406 1a3d 81e0 6dbe 645d 283e
00000110: d6fd 78be e751 5a3e 54f1 b73e fa7e 4abe
00000120: 6058 6fbe 2846 343e 15e6 f23d 00aa 833d
00000130: 8ea9 4a3e 3dfb a3be 8226 96bd 9c51 44be
00000140: ec78 493e d88d 183e 40c7 6dbe f3c0 98be
00000150: 141a b7bd 05e7 2bbe 2e73 613e ae3c 9a3d
00000160: 7274 3f3e f4b7 07bd 4f69 0abe 82fa 0f3e
00000170: bf2e 3f3e 1d9a ba3d 2b41 633e 6d9c 8dbd
00000180: c18d e63d 5b99 96bd 3182 cebd d841 40be
00000190: 9410 50be 3885 5c3e c7aa 783b 9c75 f23d
000001a0: 0909 f33d b780 27be 2b44 ed3c dca8 073e
000001b0: 5f76 17be 2318 afbe dfc5 0ebe 0a9e 11be
000001c0: ef1e 253e 2ee5 643e 0f33 a5bc 4c8c 0d3e
000001d0: f61f bd3e fee9 56be b2a6 ed3d 76a1 ce3d
000001e0: 2943 4f3e e7f5 8d3e 6b54 15bd 99ee a2be
000001f0: b13d a5be 7182 12ba ea19 813e a023 3e3e
00000200: 2a1f 9dbe 7844 3ebd 3f16 94bc 88ca a8bd
00000210: b245 5cbe e059 8bbd a746 8b3e 1298 c9bd
00000220: e353 5ebc 6daa 0e3e 65ba 01bd ae2b 833e
00000230: 5851 893e a788 37be 8fbf 9fbd a4f5 063b
00000240: 9980 1bbe b08f 7ebe fb1c 863e dc46 753d
00000250: 2f34 13be 77bf babd b841 9f3e e7db 31be
00000260: bd51 77bd 576e c9bc 6b88 753e a1d7 00be
00000270: 2a43 893d 5f9f 3e3e 85de 38be b006 d63d
00000280: 17d1 ecbd cf46 a03d 0e08 9f3d d7eb 273d
00000290: 3155 2cbe c394 d33d 44e1 c4bd ae28 64be
000002a0: 15f8 34be cffd 863c 5cab 593d 452c 7ebe
000002b0: c5c5 6b3d 2f3d 1ebe 7952 02bc 5d1a e5bd
000002c0: dc2b 3d3e ecf2 27be da74 613e ebe4 d8bd
000002d0: acbe 98bd c738 4abe 5281 403e 1ea1 453e
000002e0: 7bb9 dabd c5c3 023e 57e7 613e bc06 2f3c
000002f0: d7b1 18bd 1d00 4bbd 8efc fdbd 7c31 353e
00000300: 9a90 7d3e 0ea4 2f3d 69c8 f53c 6cf2 40be
00000310: 3821 1e3e a7e2 1d3e 9a08 e83d 27eb fa3d
00000320: 224d 363e 53e5 2ebe c54f cebd 5d4d 823e
00000330: 0e76 13bd c41a 80be 3d38 01be 9630 933d
00000340: faca 7bbe be6d 9cbe e66c bd3d 56ab 2f3e
00000350: 1ac5 1b3e 14b3 21be a79e 2f3e 3578 1fbe
00000360: 09a3 e6bd 6817 f13d 7efb 803d e2ef be3d
00000370: e4da de3d 310c f63d 8338 7cbe 0c96 5fbe
00000380: ee7e 0cbc 1ae5 79be 3dbe 8b3e eacf a4bd
00000390: 8e09 2d3e 83c6 453e b338 363e 67ac cf3d
000003a0: ae33 2d3b 65e4 8cbd 8fbc ecbd 2457 7c3e
000003b0: 322a 99bd de67 11be eefc 383d fb4b 4dbe
000003c0: d1f6 983e 88a6 653e ead2 583e 3b1c 99bd
000003d0: 9e9a 8fbe ac71 933e 4bfe 0ebc 23d6 a93e
000003e0: bad1 673e aa7b 393e f8b4 1bbd 86c3 333e
000003f0: 7614 1b3e 407e d3bd 4fd0 04be 039e c5bc
-0.055208296 0.23640487 0.22001123 -0.008276765 -0.21968494 -0.21870948 -0.15798561 0.22932865
0.055259954 0.098210156 -0.31035233 0.30464295 0.14740972 -0.22146198 -0.21222557 -0.07950356
-0.1087054 -0.02211959 0.15193664 -0.14293663 0.12468072 -0.07734826 -0.21406758 -0.14705284
-0.05067918 0.042492475 -0.0740618 0.065462515 0.04650703 -0.19943193 0.056671888 -0.22619237
-0.23664637 0.20217285 0.33298582 0.13286948 -0.12542623 -0.34320545 0.08183963 0.053398784
-0.27117977 -0.044406798 -0.15884726 0.18476585 -0.188862 0.05115039 -0.07667113 0.08244484
0.047612198 -0.19899155 0.12950079 0.14925817 0.30399773 0.26804638 0.121846125 0.24332769
-0.17868958 -0.058196332 -0.26840967 -0.112502106 -0.11096445 -0.07878733 0.23769906 -0.074041136
-0.12384014 0.03760387 -0.23230173 0.16441876 -0.2431558 0.21320306 0.35926306 -0.19775
-0.23373556 0.17604887 0.11860291 0.06428909 0.19791242 -0.32027617 -0.073315635 -0.19171757
0.19675034 0.14897859 -0.23220539 -0.2983471 -0.08940521 -0.16787346 0.22016594 0.07531105
0.18696764 -0.033134416 -0.13516735 0.14060405 0.18670176 0.09111426 0.22192828 -0.069146015
0.11257506 -0.07353469 -0.10083426 -0.18775117 -0.20318824 0.21535194 0.0037943588 0.118388385
0.11866958 -0.16357695 0.02896317 0.13248008 -0.14791249 -0.34198102 -0.1394267 -0.14220443
0.16125081 0.2235305 -0.020165948 0.1382305 0.36938447 -0.20987698 0.1160406 0.1008939
0.20240463 0.2772667 -0.03645746 -0.3182266 -0.3227363 -0.00055888953 0.25215083 0.18568277
-0.3068784 -0.046452016 -0.018077014 -0.08241755 -0.21510962 -0.06804252 0.2720234 -0.09843458
-0.013569805 0.139322 -0.0316719 0.25619262 0.26819873 -0.17923222 -0.07800209 0.002059319
-0.15185775 -0.248595 0.26193985 0.05988203 -0.14375375 -0.0911855 0.31104827 -0.17369042
-0.060380686 -0.024588747 0.2397782 -0.12582256 0.06702264 0.18615483 -0.18053634 0.10450494
-0.11563318 0.07826006 0.07765208 0.0409964 -0.16829373 0.103311084 -0.096132785 -0.22281143
-0.17672761 0.016478447 0.053141937 -0.24821575 0.057561655 -0.15453027 -0.007954233 -0.11186669
0.18473762 -0.16401261 0.22017232 -0.10590538 -0.07458243 -0.19748221 0.18799332 0.19299743
-0.10679909 0.12769993 0.22060905 0.010682758 -0.037278976 -0.049560655 -0.124016866 0.17694658
0.24762192 0.042881064 0.03000279 -0.18842477 0.1544236 0.15418492 0.113297656 0.12251883
0.17802861 -0.17079668 -0.100738086 0.25449648 -0.036001258 -0.2502042 -0.1261911 0.071870014
-0.24589148 -0.30552477 0.09249286 0.17155203 0.15211907 -0.15790969 0.17150365 -0.15573199
-0.11261565 0.117720425 0.06297968 0.09323098 0.10881594 0.12014044 -0.24630933 -0.21834582
-0.008575184 -0.24403802 0.27293578 -0.08047469 0.16898176 0.19314007 0.17795067 0.10140305
0.0026428509 -0.068795 -0.11559402 0.24642617 -0.07478751 -0.14199778 0.045163088 -0.20048515
0.29875806 0.22426808 0.21174207 -0.07476088 -0.2804765 0.28797662 -0.00872762 0.33171186
0.22638598 0.1811358 -0.038014382 0.17555055 0.15144524 -0.10326815 -0.12970088 -0.024123197

intercepts3 f4 [1, 128]
00000000: 8cef 9a3d df2f 223e 3b86 e5bd 1dc9 283e
00000010: 030b 6ebe df20 ba3d b06c a8bd a8af 0fbd
00000020: 0742 863c cd95 543e 5c8f 35be 8d43 59bd
00000030: 073d 0a3e cf76 9c3d 7b67 32be 0839 ba3b
00000040: e3de 04bd 5745 6b3e ae90 393e 462c 9aba
00000050: 4800 333e 1382 363b 15fa 31be e73d 07be
00000060: 9913 4ebc b994 28be 55b5 363e 4afc 8d3d
00000070: 9b82 25be 43ce 603d 1ec5 133e 607a 463e
00000080: c5b7 2a3e 6ebd 263d c090 2c3e 35c5 673d
00000090: f6d2 bc3c 72b9 a5bd 9e33 27be fdd2 023d
000000a0: f63c dcbc 9a76 60be 644e 9a3d f9a2 37be
000000b0: 9b66 953d 11c7 a03c f009 8a3e bd6e 823c
000000c0: b6ca 29be dff1 353b 4cd1 b83d 7e15 733e
000000d0: b98d 42bd d3fa 14bd c2b1 2b3e b8f0 dcbd
000000e0: 46ac 583c 015a f43c 6585 48be 6741 91bd
000000f0: b298 debd cf79 f93d d227 913e 192d 0cbd
00000100: aa7d 2c3e 39a7 a6bd ad50 303d 829e 1dbe
00000110: d6ff 453e fc49 bc3d af33 9b3d be2a 0f3e
00000120: effe bc3c 981d 523e 9946 003e 2128 113e
00000130: 71fd eb3c 1766 c6bd 8f6e 663d f676 92bd
00000140: 6670 d73d d394 c9bc 6cee 863d 6e59 2cbe
00000150: 87f5 e7bd df16 fd3b 6dfb 853e 91c2 8cbd
00000160: 07bf f0bd a460 123e 356d bf3d f0cf 213c
00000170: aff5 a7bc 9527 b0bd c7d6 483e e4dd 1bbe
00000180: 2070 773b adbd 49be cf48 89bd e5b3 8d3d
00000190: a51c c5bd 4cf9 03be ceba 1d3d 07a7 4bbe
000001a0: df00 44be 7223 073e 451d 0d3e c479 f33d
000001b0: 885d c83d d3df 65bc 53b2 4abe 243e 9b3d
000001c0: 2160 a83d 7b40 493e 4f81 613d a5c5 08bd
000001d0: 51f4 3d3e c46d 103e 1711 773e 2d96 00be
000001e0: f63a e1bd 568a 38be d988 433e 3a5d f5bd
000001f0: e957 27be 75d3 2a3e 671c 34be 1b70 ba3d
0.07565221 0.15838574 -0.11207243 0.16482969 -0.23246388 0.09088301 -0.082238555 -0.03507963
0.016388906 0.2076027 -0.17730469 -0.053042937 0.13499843 0.076398484 -0.17422287 0.005683068
-0.032439124 0.2297567 0.18121597 -0.0011762462 0.17480576 0.0027848526 -0.17380555 -0.13207208
-0.012577915 -0.16462983 0.1784261 0.06932886 -0.16163103 0.054884207 0.14430663 0.1938262
0.16671665 0.040707998 0.16852093 0.056584556 0.023049813 -0.080920115 -0.16328284 0.031939495
-0.026884537 -0.21920243 0.07534483 -0.17933263 0.07294961 0.019626172 0.26960707 0.015921945
-0.16581234 0.0027762575 0.09024295 0.23738667 -0.04749844 -0.036372017 0.16767028 -0.10788101
0.013224667 0.029828073 -0.19582136 -0.07092553 -0.10868968 0.12181436 0.28350693 -0.034222696
0.16844812 -0.08137364 0.04304569 -0.15392497 0.19335875 0.09193799 0.07578217 0.13981149
0.02307078 0.20519102 0.12526931 0.14175464 0.028807374 -0.09687441 0.05625778 -0.07151596
0.10519485 -0.024607098 0.06588444 -0.1683099 -0.113261275 0.0077236737 0.26168385 -0.06873048
-0.117551856 0.14294678 0.093470015 0.009876236 -0.020502893 -0.086013 0.19613181 -0.15221363
0.003775604 -0.19701262 -0.0670334 0.06919078 -0.09624604 -0.12888068 0.03850823 -0.19887935
-0.19140957 0.13197115 0.13780697 0.11888459 0.09783465 -0.014030415 -0.19794588 0.07580212
0.0822146 0.19653504 0.05505496 -0.033391614 0.1855023 0.14104372 0.24127613 -0.12557288
-0.10997574 -0.18021521 0.19095172 -0.11980672 -0.16342129 0.16682227 -0.1758896 0.09103414

coefficient4 f4 [128, 64]
00000000: b67e 053e 0c16 003e 052d 44be 18f8 da3d
00000010: d6a5 833e 04f0 8fbe 1286 293c a724 7d3d
00000020: 07ea 31bd 2e72 083e 6500 dc3d db71 bcbd
00000030: 3068 4f3d c0d3 5a3e 4ba9 f03e 29eb 1bbe
00000040: 9d5d 083c 7070 aabe 3ebf 76bd f5a2 3f3e
00000050: 1eb2 8a3d ea53 14be 6adc 123d 47f2 ddbc
00000060: a3e3 253c 228e 84be 8572 553e 7f87 3dbd
00000070: c10d 09bf a451 713b 9545 1cbd 224a d03e
00000080: a143 3d3e 7123 b13d 23f2 08bd 1336 94be
00000090: 80f0 173d e7c2 573d 5f0a 5a3e d4da bb3d
000000a0: 5581 4e3e e9b0 fd3d aa0b 81bd 6146 99be
000000b0: 687a 8dbe 55be ec3d 7e23 013d dfcc 26bd
000000c0: 2eae 1e3e 180b 9d3d 1deb ffbd 8725 843e
000000d0: 7e8a ae3e ed83 f13d eccd 733e 3af1 c3ba
000000e0: e306 483e b077 693e 1649 3e3e 9fec 7bbe
000000f0: d183 25be 5668 3dbd bb6e 143e 80e1 043d
00000100: 6878 19be e685 803e 97e8 883e 01b6 803d
00000110: 102a 89be 6c5d 2a3d bb77 0e3d 665d 8bbe
00000120: d587 353e 4141 553e 75ae 29be 22dd 813e
00000130: bedf d2bd 1b64 65be 6c6c 76be f05a 093e
00000140: fb0d 7c3e 9856 d23d fe5c 523e 11f9 aa3c
00000150: a5cc 1bbe 0c5e 0ebc 27ab 9abe efca 5f3e
00000160: f954 5abd 8e9b 8ebd 3454 cfbd 54c8 a03e
00000170: 48ad 0bbd 5fa5 bcbd 3e0b c43d 57bb c0bd
00000180: 177e 183d 1aaa a4be 41c9 d0bd 6db1 723e
00000190: cc42 d5bd c94e 83bd c909 0bbe 728f b4be
000001a0: dab0 9a3c 2d8e 87bc 62e3 b63e 7c77 58bb
000001b0: 5e4f 863e 07b5 ec3c 4c1d 8cbe 0176 4b3e
000001c0: c790 1a3e ab90 333d 7637 193e fb86 b23d
000001d0: 2edf 08be 86f8 3c3d 1e2b 643d eff0 ff3c
000001e0: b088 f73c 5d02 d93d a8bd 60be a33f 923e
000001f0: 7910 793d 4012 183d 6f71 37be 3804 273d
00000200: f159 a43e f135 8fbe de4d 26bf 552b 00bf
00000210: 03a8 a83e 0c02 17bf 2cf6 a23e 8176 063f
00000220: 5e2c 07be 8ca0 babc fd5a 743e 1199 f8be
00000230: ec0b 6e3e 74df 7e3e 41f4 9a3e 6c14 39be
00000240: a805 51be 04cb 39bf a69c c3be 8fc3 e73e
00000250: 4074 ae3e 16d3 51bf fb27 8d3e c4d1 aebe
00000260: 6ac8 b53c 64b0 cbbb 304a fb3e 89da d1be
00000270: fb08 b3be 47b2 1f3e 09e6 bcbe c22d ab3e
00000280: 4eef c73e 4510 193f 4ba4 f43e 6cb6 0abf
00000290: 51f3 b63e 1e46 c53e e733 8c3e 295c 773e
000002a0: 36f6 d53e 0717 aa3e cdf9 99be 3560 efbe
000002b0: ad1a acbe 36c5 37be 0319 b63e 61cf 3bbf
000002c0: 6958 b1be e611 193f 3832 a2be ea47 c33e
000002d0: e44d b53e 8c63 17bf 00c3 533e c536 813e
000002e0: 0abf d73e 4026 d23e e129 d93e c2fc bfbe
000002f0: 57d7 2fbf 3489 f1be 915c 903e f0b3 f2be
00000300: bc6d 573e e411 40be 817c 7a3d 7d79 acbd
00000310: 4e32 f53d 104d 82be b4b7 03bd 5a79 a4bd
00000320: 3699 093e 7062 3f3e af07 4c3d 3cf1 25be
00000330: 4d31 6c3e 64b2 093d cb72 a7bc 587c e13b
00000340: 77e2 9d3e 9386 69be 64b6 f4bd 144c 813e
00000350: 5996 0abd 6836 9ebe 9415 a93d ef4b 04bd
00000360: 6fd5 c8bc aa4e 8a3e 1076 093e 1655 67be
00000370: 9e43 623e 463e 1dbc 5e83 23be f24d db3d
00000380: 21f9 8f3c b8c0 183d 1dad c6bd d7ce 9c3c
00000390: 0bdd 243e 889c 1d3e 3ac1 833e 68e4 463c
000003a0: fe95 543d dff3 c5bc 03e6 18be 0e59 2fbe
000003b0: e20e 6e3d de32 493d 541e 7d3e f7a5 30be
000003c0: 6f40 9cbe 7223 87bd eaf8 a1be cab6 433e
000003d0: 74a3 b73d 2d98 87be 8bbe ee3d bb3d 2a3d
000003e0: 6c27 423e 9983 6e3c 18b5 883e a868 7bbe
000003f0: 62fe b4be a1ae 37be 1ce6 b13d 36d3 55be
0.13036618 0.1250841 -0.19157799 0.106918514 0.2571246 -0.28112805 0.010346906 0.061802533
-0.043436076 0.13324806 0.10742263 -0.09201404 0.05063647 0.21369839 0.4700416 -0.15226425
0.0083231 -0.33288908 -0.060240977 0.18714507 0.067722544 -0.14485136 0.035854734 -0.027093066
0.010125074 -0.2588969 0.20844467 -0.046271797 -0.5353661 0.0036822343 -0.038152296 0.4068156
0.1848283 0.08649338 -0.033434045 -0.28947505 0.037094593 0.052676108 0.21293019 0.091725975
0.20166524 0.123872586 -0.06301053 -0.29936507 -0.2763245 0.115597405 0.03152799 -0.040722724
0.15496132 0.076681316 -0.12496016 0.2580988 0.34090036 0.11792741 0.23809022 -0.001494921
0.19533877 0.22799563 0.18582568 -0.24601983 -0.16163565 -0.04624208 0.14495365 0.032441616
-0.14987338 0.25102156 0.26739952 0.062847145 -0.26789904 0.041593 0.034782153 -0.27219695
0.17727597 0.20825674 -0.16570456 0.25364023 -0.10296582 -0.22401468 -0.24064797 0.13413596
0.24614708 0.10270423 0.20543286 0.020870717 -0.15214784 -0.008689415 -0.30208704 0.21854757
-0.053303692 -0.069632635 -0.10123482 0.31402838 -0.0341008 -0.092112295 0.09572457 -0.09410732
0.037229624 -0.32161027 -0.10194636 0.23700495 -0.10413131 -0.064115115 -0.13577951 -0.3526569
0.018883158 -0.016547287 0.35720354 -0.0033030203 0.26232427 0.028894914 -0.27366102 0.19869234
0.1509429 0.043839138 0.14962563 0.08717152 -0.13366386 0.046135448 0.055705182 0.031242816
0.030216545 0.10596154 -0.21947348 0.28564176 0.060806725 0.03712678 -0.17914365 0.040775508
0.3209987 -0.27970842 -0.64962566 -0.5006612 0.32940683 -0.589875 0.3182844 0.5252457
-0.13200518 -0.022781633 0.23862834 -0.4855428 0.23246735 0.24889928 0.30264476 -0.18074197
-0.20412314 -0.725754 -0.3820545 0.45266387 0.34073067 -0.81962717 0.27569565 -0.34144413
0.022190291 -0.0062160958 0.49080038 -0.40987042 -0.3496779 0.15595351 -0.36894253 0.33433348
0.39049762 0.5979045 0.47781596 -0.54184604 0.3573251 0.38530058 0.27383348 0.2415625
0.41789407 0.33220693 -0.30073395 -0.46753088 -0.33614102 -0.17946324 0.35565957 -0.7336331
-0.34637764 0.59792936 -0.3167894 0.38140804 0.35410988 -0.5913627 0.20679855 0.25237098
0.4213794 0.41044807 0.42414764 -0.37497526 -0.6868796 -0.4717499 0.28195623 -0.47402906
0.21037954 -0.18756825 0.061153892 -0.084216096 0.119724855 -0.2544942 -0.032157615 -0.080309585
0.13437352 0.18689895 0.049812015 -0.16205305 0.23065682 0.033617392 -0.02044048 0.006881278
0.3083684 -0.22805242 -0.11948851 0.25253356 -0.03383479 -0.30900884 0.08256069 -0.03229898
-0.024515836 0.2701314 0.13423944 -0.22591051 0.22096106 -0.009597367 -0.15968081 0.10708226
0.017574849 0.037293166 -0.097009875 0.019141598 0.16099946 0.15391743 0.25733358 0.012139417
0.051900856 -0.024164138 -0.14931493 -0.17123815 0.058119662 0.049120776 0.247186 -0.1725081
-0.3051791 -0.065985575 -0.3163522 0.19112697 0.08966723 -0.26483288 0.11657437 0.041562777
0.18960351 0.0145577425 0.26700664 -0.24551642 -0.3535033 -0.1793771 0.08686468 -0.20881352

intercepts4 f4 [1, 64]
00000000: e6c6 8f3d dd6c cabd 4fbe be3c 5bac 64bd
00000010: c86e 323e 655e 233e 6224 303d 9e52 bdbc
00000020: 3c53 603e 2f85 6e3e 3171 123e a5ea bcbd
00000030: 7036 f6bd 94a8 633d 907e ad3b 652b e1bd
00000040: d359 e9bd 6f44 403e f190 243e c599 acbc
00000050: 20f0 143e 3e85 bb3d 4b0f eb3d 243f a03d
00000060: d956 1fbe 116e 123d f444 e8bc 6ba3 d33d
00000070: 652c 55bd 122c 2e3e 16aa dcbc 457f 88bd
00000080: 0951 133d 36d6 e63c ff92 80bb dab1 173e
00000090: bded 13bb 1dd1 813d 1df7 a53d 1f46 1dbe
000000a0: af05 553d e687 313e efd3 7cbd 5db1 2b3c
000000b0: 8f78 453e 4463 1d39 ba02 03bd d827 5b3e
000000c0: cd44 c3bd e230 ebbd 6472 3d3e b2f2 0f3e
000000d0: 11e5 213d ab43 623d 7efa 2d3e 5513 d33d
000000e0: 87b9 80bd 8f4e 22be 41a6 093c ac0a 443e
000000f0: 84c3 4f3e df50 6f3e 8bea 0f3e 7fcc 7d3d
0.07020359 -0.09884045 0.023284106 -0.055828433 0.17425072 0.15953977 0.043003447 -0.023110684
0.21906751 0.23292993 0.14300992 -0.092244424 -0.12022102 0.05558069 0.0052946284 -0.10994605
-0.11394086 0.18776105 0.16070916 -0.021069417 0.14544725 0.09156273 0.11477526 0.07824543
-0.15560474 0.0357495 -0.028353192 0.10333904 -0.05204429 0.17008999 -0.026936572 -0.066649
0.035965953 0.028178316 -0.0039237733 0.14813939 -0.0022572123 0.06338713 0.08103774 -0.1535878
0.052007373 0.17336997 -0.061725553 0.010479298 0.1928427 0.00015009666 -0.031985022 0.21401918
-0.09534607 -0.11483933 0.18500668 0.14057425 0.039525095 0.055240314 0.16990086 0.10306422
-0.062853865 -0.1585028 0.008401454 0.19144696 0.20289427 0.23370694 0.14054315 0.0619626

coefficient5 f4 [64, 1]
00000000: 87e9 22bf c7e0 623f ae47 803f 21a5 623f
00000010: 8e38 4ebf 6924 403f 4e16 25bf 6e02 89bf
00000020: cff2 403f 04e5 8b3f dd87 08bf 8011 413f
00000030: 8ddd 2fbf f9cc 35bf ff22 3dbf 13f3 363f
00000040: 4157 893f 6328 793f 92ed 6e3f e0cd 71bf
00000050: f71e 69bf 2c52 393f 96c1 2cbf 0513 713f
00000060: ccdf ac3d 3288 ab3f 1f0e 11bf 598f 393f
00000070: 1386 b33f 4af8 13bf 1145 093f 16da 46bf
00000080: 9eb5 1dbf fbbb 8abf 8b76 91bf eb30 4c3f
00000090: 5ed0 26bf a089 98bf 94cd 29bf 1e95 bdbf
000000a0: b2b8 5bbf 565c 58bf fb83 713f 4262 ae3f
000000b0: b4da cb3e 842b 623f b55a d1be cb31 333f
000000c0: 3f39 2d3f 516f 51bf d68b 3e3f cabe 1ebf
000000d0: 7585 41bf 49e1 d13f 4ddb 4fbf 121b 34bf
000000e0: 5aa2 56bf 47ba 32bf 1598 60bf f36e d63e
000000f0: baa6 3b3f 1428 3c3f 98dc 20bf 58fb d43f
-0.63637584 0.88624233 1.0021875 0.88533217 -0.80555046 0.7505556 -0.6448716 -1.0703866
0.75370497 1.0929265 -0.5333231 0.7541733 -0.68697435 -0.7101589 -0.73881525 0.7146465
1.0729753 0.9732725 0.93331254 -0.94454765 -0.91062874 0.7239101 -0.6748289 0.94169647
0.08441123 1.3400939 -0.5666217 0.72484356 1.4025291 -0.57800734 0.5362101 -0.7767652
-0.6160525 -1.0838617 -1.1364301 0.7976214 -0.65161693 -1.1917 -0.6632931 -1.4811132
-0.858287 -0.84515893 0.9434201 1.3623736 0.39815295 0.8834765 -0.40889516 0.69997853
0.67665476 -0.8181048 0.7443212 -0.6200987 -0.75594264 1.6396877 -0.81194 -0.70353806
-0.8384148 -0.69815487 -0.8773206 0.41881523 0.7330128 0.73498654 -0.628366 1.6639204

coefficient6 f4 [50, 128]
00000000: 648f ea3c 7798 1d3e 35ef 023e 4636 023c
00000010: 538b 3fbe fa5b 8ebe 6199 0dbe 34ed e73e
00000020: 7b14 933e 6407 013e ff41 26bf eaee eb3e
00000030: a7cf 1d3e ce29 bfbe 7016 8abe d0ac fbbe
00000040: a675 ecbd 1df5 e13d b6cb ba3c c986 0cbf
00000050: cbf0 283e 20cf a2be 7bec 4a3b 92aa 1dbe
00000060: 1a8d 3d3d bb62 483e f5e2 3bbe d586 1a3e
00000070: 1e22 21bd 7e34 b7be 1b27 413e 7489 54be
00000080: 87a7 fabe 14d7 913e 78c7 913e 6f78 103e
00000090: fc51 943d 8f18 69be d1b2 c73e 012c 793d
000000a0: 9676 debe f9ec 5bbe 6334 06bf ef3f d03e
000000b0: 280d 56bd 535a 503b 786a 1abe cc09 613e
000000c0: f2ea 603d 0acc 44be 3432 953e a245 913d
000000d0: 2477 753e 14c0 0c3f 396b 0f3c 1f57 1a3e
000000e0: 103d 4cbe 9d95 8ebe 9ae6 a8be a4ae 20be
000000f0: a0bb 7b3d 3e68 53be 852f 773e 4255 f23d
00000100: 47ca 19be 35ff 313e 1ded 7fbe e251 083f
00000110: 2f5e d2be 630e ee3e 1c66 403e 61d5 78be
00000120: e3b0 c7be 748e ae3d efc9 c83e 03a0 703e
00000130: 4e33 793e c585 d6be 39cd e4bd c0a3 b2be
00000140: 4506 933e dc40 923e 9cfc 2fbd 9ce1 5abe
00000150: 7639 2ebe b58c e1bd 84ce afbc 86e8 a9bd
00000160: 1d28 273e f1fb 7c3d 0c82 5abe 859f 613e
00000170: 3216 8a3e 7253 f3ba 69e2 483e 9a24 2abe
00000180: 860c 1c3e eaf4 dfbd 9338 47be e5be e8be
00000190: 2644 e2be 2af9 123f e593 96be e1e6 653d
000001a0: 2d3a d83e 0b98 d6bd a8d9 20be 4fea 92bc
000001b0: 54a6 9ebe a346 89be bcf0 ccbc 80f8 e0be
000001c0: 1d9a 883e 5720 7d3e c6db cd3d ea16 db3e
000001d0: c329 173e af5a 98be 5e76 0e3e 4545 263e
000001e0: 12c3 6b3e e652 e93e cf6a 82be d76e dbbe
000001f0: ba52 1f3e 7d10 083d a34b c43e 0ff1 793c
00000200: 11f3 a8be 4f50 f6bd 1989 46be eae4 44be
00000210: eb1f dfbe 0e48 16be 9dae be3e f2eb 98be
00000220: 7f3f 4d3d 054c b43d 5873 e2bc a40a 073f
00000230: 98de e53e 518a d0be 6235 323d 0bc1 0abe
00000240: eb13 c0bd 660e c9be 0cf4 8e3e e571 3a3d
00000250: 7932 57be f5e0 47be 3dc1 b83e c810 acbe
00000260: ecac f4be 4097 41be 0371 683e 0526 b4be
00000270: 877f 923d 748d 503e a6d5 59be 9847 723e
00000280: f68b 0b3e d80f 143c 90ad 4d3e 9e76 c13c
00000290: 0165 91be 2f3d 1e3f eb7c 56be eadc cebe
000002a0: 3eea f0be 023b 003e 0e61 0a3e abbb f8be
000002b0: 113a 523e c0b7 a5be 982a b53e 9e09 72bd
000002c0: 10cd 393b 8482 efbd 74b6 173f 082a 9cbe
000002d0: 076b c9bd 161e 6ebe 43d7 93bd 77b4 a93e
000002e0: 2d84 bbbd f125 643e 1bf9 023f dac2 7c3e
000002f0: d960 c83e 4d2c 87be 999c a1be 3f0c 143f
00000300: 138c 2b3e e706 29bd ce96 923c 2c6f be3c
00000310: a5a5 583e 69cf d43e e28d a13e 2aab 8e3e
00000320: d34c d13d 78e1 01be 7e20 acbe b691 7a3e
00000330: b2b9 16be 387c fcbe 7374 a3be 67d3 1f3e
00000340: 9833 b3be dae5 1bbf 907d 2bbe 6333 aa3e
00000350: a5bd bc3d 37dd 87be 8f3b 4a3e 2e28 f7be
00000360: 0e3e 1e3e b6dc 843d 8dd4 273e aaba ac3e
00000370: 6845 0e3d 968e 183e cb3b a0be 4602 d13d
00000380: 8e99 9bbe cb44 a2be 37e7 783e 5730 0dbe
00000390: 2f18 293e 2445 e13d eeba 91bd 306c ac3d
000003a0: b4d8 b93d cb5c 0a3d d1c0 afbe a43e 4b3e
000003b0: 0c1d 31be 17e1 b3be 5888 023e eb67 f6bd
000003c0: 5549 993e 75dc c03e dcba 473e e440 a53b
000003d0: 75a2 9fbe 79ea d93e ad76 ccbd 1592 ce3e
000003e0: 050e c73d 5c5b 4c3e 5fac fcbd 4f02 85be
000003f0: 82f2 aa3e 2dea 7abe 4a6b afbe 8a83 5b3e
0.028632827 0.15390192 0.12786563 0.00794751 -0.18705492 -0.27804548 -0.1382804 0.4529816
0.28726563 0.12600476 -0.6494445 0.46080714 0.15411244 -0.37336582 -0.26970243 -0.49155283
-0.11545877 0.1103308 0.022802215 -0.54893166 0.16498105 -0.3179865 0.0030963707 -0.15397099
0.046277143 0.19568913 -0.18348296 0.15090497 -0.039339177 -0.35782236 0.18862574 -0.20755559
-0.48955938 0.28484404 0.28472495 0.14108442 0.072422 -0.22763275 0.39003614 0.06083298
-0.4344985 -0.21477117 -0.52423686 0.40673777 -0.05225864 0.0031792119 -0.15079677 0.21976393
0.05491156 -0.1921846 0.29139864 0.070933595 0.2397123 0.5498059 0.008753591 0.15072297
-0.19945168 -0.2784852 -0.32988435 -0.1569162 0.06145823 -0.20645234 0.24139221 0.11832668
-0.15018569 0.1738251 -0.24992795 0.53249943 -0.4108748 0.4649535 0.18788952 -0.24300148
-0.3900214 0.085232645 0.39216563 0.2349854 0.24335977 -0.41898933 -0.111719556 -0.34890556
0.2871572 0.2856511 -0.042965516 -0.21375126 -0.17014107 -0.11013166 -0.021460779 -0.082963035
0.16323896 0.061763708 -0.21338671 0.22033508 0.2697006 -0.0018564297 0.19617619 -0.16615525
0.15239152 -0.109353855 -0.19455175 -0.4545814 -0.44192618 0.57411444 -0.2940971 0.056128386
0.42231885 -0.10478219 -0.1570803 -0.017933993 -0.30986273 -0.26811704 -0.025017135 -0.4393959
0.2668008 0.24719368 0.10051684 0.4279092 0.14762025 -0.29756686 0.13912341 0.16237362
0.23023632 0.4557106 -0.25472113 -0.42858002 0.15558901 0.03321885 0.38338956 0.015255227
-0.32997945 -0.120270364 -0.19388236 -0.19227949 -0.4357904 -0.14675924 0.37242594 -0.29867512
0.050109383 0.08803562 -0.02764289 0.5275061 0.44896388 -0.40730527 0.04350794 -0.13550203
-0.09378799 -0.39268798 0.27920568 0.045518775 -0.21015348 -0.19519408 0.3608493 -0.33606553
-0.4778818 -0.18905354 0.2269936 -0.35185257 0.0715323 0.2036646 -0.21272907 0.23660123
0.1362761 0.009036981 0.2008574 0.023616131 -0.28397372 0.6181211 -0.2094609 -0.4040292
-0.47053713 0.1252251 0.13513586 -0.4858068 0.20529963 -0.32366753 0.3538406 -0.059091203
0.0028350987 -0.11694816 0.59262776 -0.30500817 -0.09834867 -0.23253664 -0.07218792 0.33145496
-0.0915607 0.22280098 0.51161355 0.24683705 0.3913639 -0.26400986 -0.31564787 0.57831186
0.16752653 -0.04126635 0.017894175 0.02324637 0.21156938 0.4156449 0.3155356 0.27864963
0.10219731 -0.12683666 -0.3361854 0.24469647 -0.14719275 -0.4931352 -0.3192478 0.15607987
-0.350003 -0.608976 -0.16747117 0.3324233 0.09215859 -0.2653596 0.19749282 -0.48272842
0.1545336 0.0648741 0.16389675 0.33736163 0.03473416 0.14898142 -0.31295618 0.10205512
-0.3039059 -0.3169311 0.24306951 -0.13787971 0.16513132 0.10999516 -0.07115732 0.08419073
0.09074536 0.0337799 -0.34326795 0.19848114 -0.17296237 -0.35132667 0.12747324 -0.120315395
0.2993876 0.37668195 0.19504875 0.005043136 -0.31178632 0.425617 -0.09983573 0.40345827
0.09719471 0.19956726 -0.12337565 -0.25978324 0.33388144 -0.24503393 -0.34261543 0.21436897

intercepts6 f4 [1, 128]
00000000: 9d7c 513e e03a c53e 987a 1cbe 276e af3e
00000010: 6dbc 8abe 890b a63e c18f 77bd 464d 373c
00000020: 2ec2 d93d 3f1a ac3e 6bd4 48be 9368 403d
00000030: 7dbf 393e 0ae8 143e 4e69 283d bd32 25bd
00000040: c451 04bd 9921 d23e b19d 663e 39dd 063e
00000050: 226d a83e 1748 523e 88b9 1cbe 531c 343c
00000060: 1f26 013e 023e 35be 755c b13e 0b43 873e
00000070: bf87 22bc d284 ac3c a654 3f3e f876 553e
00000080: 0d58 b43e 7993 2e3e 25c5 773e 4bac 203e
00000090: 40c7 b13e cbb7 2d3d bf5e 7abe c08a 633e
000000a0: 9262 0d3e 30c9 43be c97c 6b3e 0bbb 98be
000000b0: 28b6 f93d db8d 253e 6419 9d3e 3a0f 513d
000000c0: 86b7 f43d 7283 663d a587 a13e b023 db3e
000000d0: 63c6 cf3d 4b93 bfbc 53c1 d93e 11bb 20bd
000000e0: 50c9 6e3e f5a1 ad3d 07ac 36bc cf7a 473d
000000f0: 9523 8ebd e8ad 603e 6424 a13e b010 803b
00000100: 457d b23e 225c 1abe 39db 8d3e d215 a23d
00000110: 5d2e 873e 3cee a53e a424 6f3e 2f1f a33e
00000120: 9d75 6a3e bed3 cc3e 6439 583c 5bc5 ab3e
00000130: ea12 873d 6f38 89be 5a4d c73d 4b41 4dbd
00000140: cd7b 2c3e d4d3 173d c175 2b3e 3559 56be
00000150: 8f3f 263e 6289 2e3e 9430 8f3e 1b17 e9bc
00000160: a4aa 123d 0a4e bc3e bf6c ae3e 8865 ffbc
00000170: 3c5f 8c3d 96d3 60bd 611b b13e c03e 3abe
00000180: 0d4e 4b3e cff9 893d cd74 d2bd 3593 273e
00000190: 6e15 d9bd 88ca 1cbe eb61 643e 4b30 3abe
000001a0: 6d60 15be 8bb2 883e ba95 913e 4609 9f3e
000001b0: 02c6 883e 330d 073e cff3 cdbd 2f52 8f3e
000001c0: e9b8 483e b631 0e3e f2b2 c33d 886d d8bd
000001d0: d6ec 513e e991 973c 99a9 a73e 91ab 5bbd
000001e0: 91f4 c8bd 133f 4cbe f786 993e 054f 5cbc
000001f0: 6950 83be 18cc cb3e 01d2 81bd eb0c 7d3e
0.20457692 0.3852148 -0.15281141 0.34263727 -0.27096882 0.32430676 -0.06043983 0.011187857
0.1063274 0.33613774 -0.19612281 0.04697473 0.18139453 0.14541641 0.04111605 -0.04033159
-0.03230454 0.41041258 0.22521092 0.13170327 0.32895762 0.20535313 -0.1530515 0.010993081
0.12612198 -0.17699435 0.34640852 0.26418337 -0.00992006 0.021059427 0.18684635 0.20846164
0.35223427 0.17048444 0.24196298 0.15690725 0.34722328 0.042411607 -0.24450205 0.22220898
0.13807133 -0.19119716 0.2299682 -0.29830202 0.12192947 0.16167395 0.30683434 0.05103991
0.11949067 0.0562777 0.315488 0.42800665 0.10145261 -0.023385664 0.42530307 -0.0392409
0.23318982 0.084781565 -0.011149413 0.048701104 -0.069403805 0.2194134 0.31473076 0.0039082393
0.34861198 -0.15074208 0.27706316 0.07914318 0.2640256 0.3240832 0.23353821 0.3185973
0.22896428 0.40005296 0.013197277 0.33549008 0.065954044 -0.26800868 0.097315505 -0.050111096
0.16844101 0.03706725 0.16744138 -0.20932467 0.16235183 0.17044595 0.2796675 -0.0284534
0.035807267 0.3677829 0.34067342 -0.031176344 0.06854102 -0.054889284 0.345912 -0.18188
0.19853993 0.067371 -0.10276184 0.16364749 -0.105997905 -0.15311635 0.22302978 -0.18182485
-0.14587565 0.26698717 0.28434545 0.31061763 0.26713568 0.13188629 -0.100562684 0.2799239
0.19601788 0.1388615 0.095556155 -0.105677664 0.20500502 0.018502193 0.3274658 -0.053630415
-0.09812272 -0.19945936 0.29985783 -0.013446574 -0.25647286 0.3980415 -0.06338883 0.24711959
